1_Handwritten_Digits/mnist_model.pth (torch, 943621 bytes, 6 tensors)

fc1.weight f4 [256, 784]
000000 bd 3d 5d bd eb 60 28 bd c3 ee 6a bd f4 80 18 bc
       -0.054013956 -0.041108053 -0.057356607 -0.009308089
000010 58 15 f9 b6 df d6 3a bd bd 47 16 bd 88 2a 14 3b
       -7.423263e-06 -0.045615073 -0.03668951 0.0022608358
000020 48 c7 5b bc b9 ac 04 3b f8 48 d9 bc 90 e9 f6 bc
       -0.013414212 0.0020244552 -0.026524052 -0.030140668
000030 b5 e7 41 bd 38 f7 3d bc 13 3a c2 bb e2 12 39 bc
       -0.047340114 -0.011594586 -0.005927333 -0.011296006
000040 ce b3 8f bc e6 f6 cf bc 91 e4 48 3b c2 2f ef bc
       -0.017541792 -0.025386285 0.0030653814 -0.029197577
000050 18 64 9e bc 2b 60 21 bd b9 76 69 bd 47 7e 2a bd
       -0.019334838 -0.039398354 -0.05699799 -0.041624334
000060 ef dc a3 3a 8a 33 39 3b 98 dc b2 bc 37 3d 43 bd
       0.0012501756 0.002825948 -0.021833703 -0.0476658
000070 f6 e7 98 bc 66 2a af bc 0d c1 59 3b d8 82 b1 bc
       -0.018665295 -0.021382522 0.003322664 -0.021668836
000080 ac 99 0f bc 90 f4 27 bc 8e 62 a9 bc 7b 44 20 bd
       -0.008764666 -0.010251179 -0.020676877 -0.039127808
000090 ec 09 0e 3c c3 f5 2d bd ee 72 7c 3c 32 b3 18 bc
       0.008669358 -0.042470705 0.015408261 -0.009320067
0000a0 43 52 a3 3b cf 36 c2 bb 45 21 91 bd f7 24 c9 3b
       0.0049841716 -0.005926944 -0.07086424 0.0061384398
0000b0 07 f0 2f bd 1b e3 f9 bc aa 59 26 bd c4 03 72 bc
       -0.042953517 -0.0305038 -0.040612854 -0.014771406
0000c0 0b 0e e9 bc 0d 22 a7 3c fd e8 9d 39 d4 71 8c 3b
       -0.028449079 0.020401979 0.00030118963 0.0042860303
0000d0 28 10 60 bc 51 05 84 bc f2 99 de bc 43 a0 28 bd
       -0.013675727 -0.016115816 -0.027173016 -0.041168462
0000e0 cb 24 23 bd c1 af 46 bd 39 6c 46 bd 40 53 78 bc
       -0.03983001 -0.048507456 -0.048443053 -0.015156567
0000f0 0f 10 27 bd 23 7c 3e bd cc ff 8b 3c c9 b0 b9 bb
       -0.0407868 -0.046505105 0.017089747 -0.0056668264
000100 dc 2c e9 3b c4 47 6b bd cc b1 06 3c 65 d4 c7 3c
       0.0071159434 -0.057441488 0.008221101 0.02439327
000110 2a 75 48 bd 55 dd c1 bd 2c 0d 72 bd ff ab 6d bd
       -0.04893986 -0.09466044 -0.059094593 -0.058025356
000120 6e b4 f6 bc 62 b8 fc bb b0 6a 8f 3c fc f6 e5 bb
       -0.030115332 -0.00771241 0.017506927 -0.007017968
000130 a4 22 68 3b df fc 50 bb 63 f8 d7 bc 8a c4 e7 3b
       0.0035421038 -0.0031889004 -0.026363557 0.00707299
000140 df ba cc bb 20 8e 71 bc 54 c9 08 ba ab 88 44 bd
       -0.0062478627 -0.014743358 -0.00052179885 -0.0479819
000150 0b f7 11 bd 17 ce 4d 3b 12 34 f3 bc 2d e3 1a bd
       -0.03563599 0.0031403357 -0.029687915 -0.037814308
000160 c9 e4 3e bd 57 d8 ea bb bf d2 33 3d 79 85 82 3c
       -0.046604905 -0.007166903 0.043902155 0.015932785
000170 73 9a 85 3d c4 be 4a bd c6 0e 0d bd ed 99 db bb
       0.065235995 -0.049498335 -0.034437917 -0.006701699
000180 c9 fe 28 be a7 55 b9 bd 52 f1 99 bd c8 04 9d 3c
       -0.16503443 -0.0904954 -0.07516731 0.019167319
000190 fc 3d 93 bd 5d 53 09 bd 4b 6e c4 3c 6a 89 6a 3d
       -0.07189557 -0.033526767 0.023978373 0.057259955
0001a0 d4 63 b6 3d c9 66 26 3d 13 c3 04 3c 48 23 9f 3c
       0.089057595 0.040625367 0.00810315 0.019426003
0001b0 9e 8c 21 bc c9 ab 73 bc 05 a3 16 bd d6 e6 6a bc
       -0.009860186 -0.0148725 -0.03677656 -0.014337262
0001c0 3c c9 1c 3c 9d a0 00 bd f2 8c 40 bc 5c dd 0b bc
       0.009569462 -0.031403173 -0.011752354 -0.008536663
0001d0 f2 4e 4d bc 60 64 a1 bc a4 7a d5 3c 4a 8d b6 3d
       -0.012531029 -0.019701183 0.026059456 0.089136675
0001e0 2e cb eb 3d 65 97 35 3d 83 7f f8 3d b3 15 06 bd
       0.11513363 0.044333834 0.12133696 -0.032735538
0001f0 9d 68 a4 bd 99 1f 2a bd c9 7e 15 bd ed 4a 42 bd
       -0.08027766 -0.04153404 -0.036497865 -0.047434736
000200 82 0d 1a be c1 db 13 be c5 0b e0 bd c2 ae 06 be
       -0.15044215 -0.14439298 -0.10939745 -0.13152602
000210 d7 81 2f 3c bf 4c 35 3d 30 74 b8 3c c2 c7 01 bc
       0.010712109 0.044262644 0.02251634 -0.007921161
000220 2e 6e da bd 3d ee 99 3a 7e 34 21 bd 75 26 3d bd
       -0.10665546 0.0011743974 -0.0393567 -0.046179254
000230 c4 b9 7e bb a5 08 89 bb c6 a2 f5 bc 45 98 cb bc
       -0.003886805 -0.0041819387 -0.029984843 -0.024852881
000240 61 0c fc bc b5 ed 8c bd 9f 5d 3c 3d 54 7f 8b 3e
       -0.030767621 -0.068812765 0.04598772 0.2724558
000250 b5 54 76 3d 7f b2 60 bd 05 f2 b0 bd 95 d0 66 bd
       0.060139377 -0.054857727 -0.086399116 -0.056351263
000260 0e ee 9a bd 91 4c 23 bc 60 31 8a 3d 19 09 96 3d
       -0.075649366 -0.009966985 0.06747699 0.07325954
000270 cd 7a 9e bd 29 81 85 be 6a 2f 54 be c5 1e c3 bd
       -0.07738266 -0.26075104 -0.20721212 -0.09527353
000280 b2 54 6c 3d cc 8b e7 3d 82 c6 5c 3d 31 08 2c bd
       0.05769796 0.11305961 0.05390025 -0.042
000290 dc a3 d4 bd 0b 2e 43 bd 67 fc 8b 3c a1 1a 23 3c
       -0.10382816 -0.047651332 0.017088128 0.009955079
0002a0 ff c1 24 bd 14 5e 5c bc c7 48 9d bc 3a 2a 01 3d
       -0.04022407 -0.013450164 -0.019199742 0.03153441
0002b0 3b a1 35 3d 18 e3 8c 3d 59 aa 28 3e 26 10 39 3e
       0.044343214 0.06879252 0.16471232 0.18072566
0002c0 36 cf cc 3c b1 00 3f bd 9e db 33 be 8e ce 42 be
       0.02500115 -0.04663152 -0.17564246 -0.19024107
0002d0 61 f3 80 bd 29 f4 87 bc dd 76 06 3d cb 6f 2f 3d
       -0.06296421 -0.016595917 0.0328282 0.042831223
0002e0 55 22 d7 bd bb 10 51 be 43 24 b8 bd cc 81 32 bc
       -0.10504595 -0.20416538 -0.089912914 -0.010895204
0002f0 01 fb 61 3d 59 ea b3 3c dd 6e 05 3d 84 f7 3b 3d
       0.055171017 0.021962332 0.03257643 0.045890346
000300 56 4d 0c bd 19 1e 85 3d 59 7f 89 bd d2 04 21 bd
       -0.03425344 0.06499881 -0.06713743 -0.039311238
000310 2e 81 94 3a 9a 82 7b bc 68 5f 97 bc bf 1c 96 3d
       0.0011330002 -0.015350962 -0.01847811 0.07329702
000320 c1 7d 66 3e d1 b0 42 3e 28 33 6a 3e e9 2b 8a 3e
       0.22508909 0.19012763 0.22871077 0.26986626
000330 e2 0e e8 3d f9 45 9b bd b4 6d 59 be a6 39 31 be
       0.11330964 -0.075817056 -0.21233255 -0.17307147
000340 8d 66 f2 bd e4 0c 0f bd cc 96 82 bd 71 65 2b bc
       -0.11835966 -0.034924403 -0.063764185 -0.010461197
000350 68 9b 85 bd a9 0b de bd 3d e0 f0 3b 3a 36 08 3d
       -0.06523782 -0.10842068 0.00735095 0.03325484
000360 4f ae 08 bd dc 8a a5 bd f4 52 8d bb 8d c9 b3 3d
       -0.03336936 -0.08083126 -0.0043128673 0.08778677
000370 36 08 99 3c 58 06 54 3d 12 b6 0b bd bb a7 ec bb
       0.018680673 0.051763862 -0.034109183 -0.0072221435
000380 9e 35 a7 bc e6 86 4d bc 60 97 db 3b a6 65 b5 3d
       -0.020411309 -0.012544369 0.006701395 0.088572785
000390 65 2d 73 3e 27 ad 74 3e 1e b4 23 3e 8f b9 4e 3e
       0.23747785 0.23894177 0.15986678 0.20187972
0003a0 cb 40 c1 3d df 6d 48 bd 63 f8 07 be e3 73 0e be
       0.094361864 -0.048932906 -0.13278346 -0.13911395
0003b0 4b b3 fd 3b 0c f5 37 bc 6b fb 31 be 7f 0c 0b be
       0.0077423207 -0.011227857 -0.17381065 -0.13578986
0003c0 f2 4b a6 3d 38 8e 5d bd 73 bc 28 bd 17 ca 14 be
       0.08119954 -0.05409071 -0.041195344 -0.14530216
0003d0 b7 0e 8f bd a2 55 0d bd 31 a8 3a ba 7c e6 b3 3d
       -0.069852285 -0.034505494 -0.00071203994 0.08784196
0003e0 a7 b3 16 3e 94 ec 32 3d db 1b 18 bd 86 05 67 bc
       0.1471697 0.04368265 -0.03713594 -0.014100438
0003f0 08 e7 93 bc d0 5d 46 3c 1f d6 c2 bc 59 6a 23 3d
       -0.0180545 0.012107328 -0.023783742 0.039896343

fc1.bias f4 [256]
000000 4e f5 c2 3c 42 cc f7 bc 50 ab 75 bd c0 c9 26 bd
       0.023798611 -0.030248765 -0.05997783 -0.040719748
000010 0e bf 50 bd 96 52 60 3a cb 34 04 bc 78 7b 10 3b
       -0.050963454 0.0008557228 -0.008069227 0.002204625
000020 f4 ed 04 bc 4b 6d 33 bb d9 70 2d 3c 0d 54 90 bd
       -0.008113373 -0.0027378376 0.010585987 -0.070472814
000030 79 67 ba bc c2 02 33 3c 1c 7f 0d bd 4c 6a 95 bc
       -0.022754418 0.0109259505 -0.03454505 -0.018239163
000040 8b 4a 66 3a 7e 69 64 bd 7a c7 03 bd 2c 3c 4b bd
       0.00087849115 -0.055764668 -0.032172658 -0.04961793
000050 08 27 fa bc 1f 90 b2 3b 24 5c b5 bc 85 2b fd bc
       -0.03053619 0.0054493095 -0.022138663 -0.03090454
000060 30 05 60 3c 8d 73 3f bd a8 10 58 bd 90 02 bc 3c
       0.013673112 -0.046741057 -0.05275026 0.02295044
000070 cb 05 b4 bd 80 14 91 3b 75 97 c7 3c 42 de cd 3c
       -0.087901674 0.0044274926 0.024364213 0.025130395
000080 9f 5c ce bd f8 9d af bb 4a 03 c2 bc 72 2d cf bc
       -0.1007626 -0.0053594075 -0.023683209 -0.025290225
000090 ea 80 93 bb 50 aa 34 bc 24 c2 b4 bc 31 87 b2 bc
       -0.0045014517 -0.011026934 -0.02206523 -0.02179298
0000a0 00 f0 7d bd dd 76 36 3d 32 a1 0c bd 53 aa a8 3c
       -0.06199646 0.04454695 -0.034333415 0.02058903
0000b0 d7 c7 0e 3c 5d d6 91 bd f1 ae 82 3b 05 ca 48 bd
       0.008714638 -0.07120965 0.00398814 -0.049020786
0000c0 e5 04 96 bd 32 28 e7 bc 08 ef 03 bd 38 e1 5d 3b
       -0.07325152 -0.028217409 -0.03221038 0.0033856165
0000d0 e3 50 15 3d 31 cc 3b bd 05 c2 1a bd 42 03 42 bd
       0.036454093 -0.04584903 -0.037782688 -0.04736639
0000e0 6e ac 17 bd 81 96 28 3a ef 25 14 bc 6d df 32 3c
       -0.037029676 0.0006431118 -0.009042247 0.010917527
0000f0 1b 3b c2 bc c6 cb 1e bc 48 d4 b9 ba 98 0c 55 bd
       -0.023709824 -0.009692138 -0.0014177645 -0.052013963
000100 9e 3e 97 bd 4e 2f 2a bd ab 07 97 3c be d5 92 bd
       -0.0738499 -0.04154902 0.018436274 -0.07169674
000110 c4 8c 9a bd 4f 4e 02 bd 31 c6 1d bd 40 78 79 3c
       -0.0754638 -0.031812962 -0.03851909 0.015226424
000120 38 e5 bc bc 9c b8 4f bc ce cc 06 bc 70 93 b9 39
       -0.023058519 -0.012678292 -0.00822754 0.000353958
000130 9c 8d 5f bd 29 b8 24 bd 2b 22 4e bd 7e cc 38 bb
       -0.05457841 -0.04021469 -0.050325554 -0.0028198059
000140 c4 28 98 bb f3 5d e9 ba c0 af 13 bc 05 af 30 bc
       -0.0046435315 -0.0017804488 -0.00901407 -0.010783915
000150 57 ab 89 bc c4 75 ae 3b ea 32 75 bc b9 c6 46 bd
       -0.016805334 0.0053240974 -0.014965752 -0.04852936
000160 8f 92 8e bb ea d0 ff bc 67 f9 44 bd 80 0b 01 bc
       -0.0043509672 -0.031227548 -0.04808941 -0.007876277
000170 49 02 b5 3a d0 9c 75 bb 27 7a a4 bb fd 62 6b bd
       0.0013809885 -0.00374775 -0.0050194445 -0.05746745
000180 b8 96 2b bd 60 61 e8 bb 27 0a 24 bb 3c 09 62 bd
       -0.041891783 -0.007091686 -0.0025030465 -0.055184588
000190 b4 93 8c bc 3f 9c 2d bd 09 20 b3 bc 4c 27 bb bc
       -0.017160274 -0.042385336 -0.021865861 -0.022845887
0001a0 29 c2 06 bd 90 49 b8 bc 5c 54 4d 3c 7f fc d0 3b
       -0.03290001 -0.022496015 0.01253232 0.006377756
0001b0 86 53 86 bc 81 38 36 bc b7 98 b1 bc 67 c9 cd bb
       -0.016397249 -0.01112187 -0.021679265 -0.0062801125
0001c0 51 90 51 bd 18 7d 03 3d b3 1a d1 bc 7a bb ad ba
       -0.05116302 0.03210172 -0.025525426 -0.0013254725
0001d0 e8 e3 9d 3c 4e 4d 24 ba 13 aa 48 bd ad 17 ff bc
       0.019273713 -0.0006267623 -0.04899032 -0.03113922
0001e0 ee db f7 bc b1 f1 e6 bc 22 61 cf bb 38 48 c1 bc
       -0.030256238 -0.02819142 -0.006328718 -0.023594007
0001f0 19 96 23 bb 4a 62 61 ba c1 d4 d6 bc 79 8f 8e bc
       -0.0024961291 -0.0008597715 -0.026224496 -0.017402397
000200 b8 06 fc bc d1 13 28 bd 35 70 da bb 56 8f 00 bc
       -0.030764922 -0.041034523 -0.006666208 -0.007846674
000210 e0 94 a4 bc fd 1f 82 bd f6 a6 56 bd 78 8a 05 bd
       -0.02009052 -0.063537575 -0.05240532 -0.032602757
000220 7b 0f 4d 3c 9d 98 80 bd 83 61 4a bd 51 72 ed bb
       0.012515898 -0.06279109 -0.0494094 -0.0072462936
000230 7c 58 da bc d2 c7 42 3c 01 b4 9d 3c 3c 2b 2b bd
       -0.02665352 0.011888461 0.019250872 -0.04178928
000240 c2 74 36 bc b8 0e 21 bd a3 75 e3 bc 2c 04 5c bc
       -0.011136236 -0.039320678 -0.027766054 -0.013428729
000250 07 a8 f4 bc 91 e6 37 bd db 8d db bb af ee ee 3c
       -0.029865278 -0.04489762 -0.00670026 0.029166548
000260 d2 d2 9c bd 1c c1 12 bd 81 bf 31 bd 72 55 74 bc
       -0.07657398 -0.035828695 -0.043395523 -0.01491295
000270 ee 1d a9 bc 0d 79 42 bc f1 3c 16 bc 55 30 14 bd
       -0.020644154 -0.011869681 -0.009169803 -0.036178906
000280 0c 55 91 bc b2 1f 5a bd 37 ba 45 bd 06 f7 7f bc
       -0.017740749 -0.053252883 -0.04827329 -0.01562286
000290 ee 09 cf bc 78 ff e7 bb 1a a3 24 3c c0 0f b1 bc
       -0.02527329 -0.007080015 0.010048652 -0.021613955
0002a0 2f 70 05 bd 1e 3b 0e 3c f5 c0 c4 bc 63 e1 94 bb
       -0.03257769 0.008681087 -0.02401779 -0.0045434698
0002b0 2d 98 eb bc d9 b3 aa 3b 14 88 35 bd de c3 9a bc
       -0.028759087 0.005209428 -0.044319227 -0.018892225
0002c0 c6 e9 d1 bc c1 a6 c7 bc 58 9a 9d bc 3c 0b 4e bd
       -0.025624167 -0.024371507 -0.019238636 -0.050303683
0002d0 85 44 6c bd 26 1e 6e bd 47 af de 3c 87 08 f6 bb
       -0.057682533 -0.05813422 0.027183188 -0.0075083408
0002e0 56 4a b2 bc 91 89 de bc 8c 1e 2e 3c e7 9d 80 3c
       -0.021763962 -0.027165206 0.0106274 0.015700294
0002f0 09 27 a2 bc 11 88 73 bd b1 a1 8c bd 9c 99 43 bd
       -0.019794004 -0.059455935 -0.06866778 -0.047753915
000300 a0 40 bd 3b 30 48 49 bb 7d 25 04 bd 24 8f a8 3c
       0.005775526 -0.0030713193 -0.032262314 0.020576067
000310 44 5e 79 bb 9b 87 03 bc 20 3c f5 bb 13 c6 88 bc
       -0.0038050571 -0.008027936 -0.007483974 -0.016696012
000320 1b 8e d5 bc a8 d7 35 bc 31 5c d5 bc ee 12 24 bc
       -0.026068738 -0.01109878 -0.026044937 -0.010014279
000330 b1 53 e4 bc 46 ce 3e bb 48 a3 aa bc 90 6a e5 bc
       -0.027871938 -0.0029114648 -0.020829812 -0.028004915
000340 f9 e4 90 3c c0 8a e6 bc f6 32 77 3c b3 62 f1 bc
       0.017687308 -0.028142333 0.015087834 -0.029466009
000350 5c f7 49 3c 99 27 1e bd 51 38 c6 3b 04 20 02 bd
       0.0123270415 -0.038611982 0.006049194 -0.031768814
000360 10 05 e0 bc 29 36 ea bb a4 e9 a6 bc 89 eb 14 bd
       -0.027346164 -0.0071475697 -0.02037508 -0.036357436
000370 2d 3c 03 bc 04 12 00 bc e5 f9 29 bd 54 c0 13 bd
       -0.0080099525 -0.007816795 -0.041498084 -0.03607209
000380 79 33 11 bd b4 9f 4d bd 31 1a 88 bc 82 d8 2b bd
       -0.03544948 -0.050201133 -0.016614052 -0.041954525
000390 19 20 85 bd 45 e7 75 bc 23 f8 f5 bc 18 8d 25 3d
       -0.06500263 -0.015008752 -0.030025547 0.04041776
0003a0 0a c0 62 bd 45 8e de bb 9f 65 4e bd 4d b8 30 bc
       -0.055358924 -0.006791862 -0.050389882 -0.010786128
0003b0 3c ed 2e bd f3 24 46 bd f9 d2 b2 3c a2 42 35 bd
       -0.042706713 -0.04837508 0.021829115 -0.044253
0003c0 5d b0 58 bd c3 e9 d0 3b 45 dd 36 bd 04 1b 95 3b
       -0.052902568 0.006375523 -0.044644613 0.0045503397
0003d0 76 1a 2a 3c 0e d6 a1 bc 14 72 eb bb 0c cf 23 bd
       0.010382285 -0.01975539 -0.00718523 -0.039992377
0003e0 6e ea 68 bd e6 a3 03 bd 34 ee e3 bc 28 73 f3 bc
       -0.056864195 -0.032138728 -0.027823545 -0.029717997
0003f0 cd 63 49 3c 8e 8b e7 3c b3 f3 dc 3a d2 5a 73 bc
       0.012291861 0.028264787 0.0016857296 -0.014853196

fc2.weight f4 [128, 256]
000000 ef 6e 3c bd b2 cd 8d bb 74 1d e7 bd 9f b5 94 bd
       -0.046004232 -0.0043274993 -0.112849146 -0.07261204
000010 7e 7a 3c 3d 2c 89 10 3e d9 52 c9 3d 4b db 9d be
       0.046015255 0.14114827 0.09830255 -0.3083137
000020 4b 4c b3 bc a2 3a 0f 3b 8c 65 06 3d 15 95 d4 bd
       -0.021886965 0.0021855016 0.032811686 -0.10379998
000030 d8 0b 80 bd 2c 2d a0 3d be bd 68 3d 0c 84 fa bd
       -0.06252259 0.07821116 0.056821577 -0.12232217
000040 86 70 23 3d bb 54 b7 bd 4d ce 8b bb af a2 9b bd
       0.039902233 -0.08951708 -0.0042665363 -0.07599389
000050 72 4d c1 3d 09 7c 37 be 6b 1f 52 3e 28 08 f4 bd
       0.094386 -0.1791841 0.20519798 -0.11915618
000060 c9 55 bd 3d 29 69 c3 bd fc c8 85 3d ad 4c 33 3d
       0.09244878 -0.09541542 0.06532475 0.043774296
000070 f3 87 78 3d a6 c9 02 be 29 c2 20 3e 16 e7 09 3e
       0.060676526 -0.12772235 0.15699066 0.13467059
000080 b6 a2 19 3c 1f 68 c6 3d 46 19 96 3c bc 28 96 3c
       0.009377172 0.09687828 0.018322598 0.01832997
000090 20 3b 56 3d 16 da 42 bd cc 9d 68 3c 2b 7c d1 bd
       0.05230248 -0.047571264 0.014197778 -0.10228761
0000a0 e3 a5 c9 bc 18 84 01 be 84 86 0e bd fb 9a 0d 3e
       -0.024615234 -0.12648046 -0.034796253 0.13828652
0000b0 63 0c 43 3c e7 e5 56 bb 32 4f fb 3d 38 5c 17 3e
       0.011904809 -0.003279084 0.12270965 0.14781272
0000c0 4f 14 41 bd 28 54 d8 3c 82 fc f9 bd 7f fe bf 3c
       -0.04713851 0.026407316 -0.12206365 0.023436783
0000d0 fb 42 45 be d7 4c 06 3e db 76 b3 3c 7c aa 36 3e
       -0.19263832 0.1311525 0.02190726 0.17838472
0000e0 59 a8 5c 3d 7a 17 99 bd 22 6d cc 3d 35 4e 90 3d
       0.053871486 -0.07475181 0.09981753 0.07046167
0000f0 85 e0 1c 3e b8 fa 39 bd 86 7e 87 3d 48 8c 99 bd
       0.15320022 -0.04540512 0.06615929 -0.0749746
000100 c0 dd 94 3d d4 5f 2b 3d 39 5f 15 3e 96 62 7b 3c
       0.07268858 0.041839436 0.14587106 0.015343329
000110 80 99 5e 3d 41 c5 a4 3c e6 af ab 3d ff c0 25 bd
       0.054345608 0.02011359 0.08383159 -0.04046726
000120 ce 8c 83 be 61 68 49 be da f0 6a bc 74 eb d1 be
       -0.25693363 -0.19668724 -0.01433965 -0.4099995
000130 7d ed b4 bd 3b f3 4e bc 6b ff 07 3e bd bd 6f 3d
       -0.0883436 -0.012631233 0.13281028 0.058530558
000140 9d cc a2 bd 79 db 5a 3e 39 c2 5a bd b2 96 ef 3d
       -0.07949183 0.21372785 -0.05340788 0.11698665
000150 e0 a6 5a bd e3 50 31 bd fa 82 1c bd a6 2d 8f 3d
       -0.0533818 -0.04329003 -0.038210846 0.069911286
000160 f3 79 04 bd d0 96 ae be 2f 2d a1 3d 42 0c 9f 3c
       -0.032342862 -0.34099436 0.07869946 0.019415025
000170 c5 c5 c2 3d bf 77 08 3e 7d 41 14 be db 07 69 bd
       0.09510378 0.1332693 -0.14478107 -0.056892257
000180 82 f7 af 3c cb 9b 34 3d 40 dc f8 3b d1 fe b0 3d
       0.021480326 0.04409389 0.007594615 0.08642352
000190 88 1a 50 3e 6e f5 83 bd da b0 68 bc 28 bb c9 3b
       0.20322621 -0.064432964 -0.014202321 0.006156344
0001a0 77 e6 ca 3c 38 45 16 3e c7 e7 a5 ba 9b 09 3d 3e
       0.024768097 0.14674842 -0.0012657576 0.18460695
0001b0 d3 d2 02 3d 4d af cd 3d 32 b5 18 3e 43 35 98 3d
       0.03193934 0.100432016 0.1491287 0.07432034
0001c0 b9 bc f6 3d ee 90 d2 bd e3 6c 45 bd a2 aa 24 be
       0.12047715 -0.102815494 -0.048199546 -0.16080716
0001d0 b3 ac 14 3d 31 23 52 3d cd a3 65 bd 4a 58 94 3d
       0.03629751 0.051303092 -0.056064416 0.07243402
0001e0 8e 38 d2 bd 21 b5 97 3c 01 59 1b 3b 63 c6 ba 3d
       -0.10264693 0.018518986 0.0023704174 0.091198705
0001f0 32 4c 83 3d 2e c9 f0 3c e8 9e 53 3d 98 17 bb 3d
       0.064110175 0.029392805 0.051665217 0.091353595
000200 6a 00 63 3d 6e fd b4 3b 2d 16 2f bc a2 13 03 3e
       0.055420317 0.0055233752 -0.010686439 0.12800458
000210 35 b6 ff 3c 5f b6 b1 3d 55 3b 93 bd 33 9b df 3c
       0.031214813 0.08677363 -0.07189051 0.027295684
000220 7c a6 e9 3d fb bd c6 3d 90 de 1b 3d 76 43 c9 bb
       0.114087075 0.09704205 0.03805405 -0.006142075
000230 c4 4c 9e bd 06 08 5f 3d d4 4b a8 bd 0f 08 93 be
       -0.07729486 0.05445101 -0.08217588 -0.28717086
000240 a4 1a a7 3b 32 d7 45 bb fb 75 39 3d d4 f4 45 be
       0.0050996114 -0.003018808 0.04527853 -0.19331676
000250 16 81 2b 3d 26 14 46 bc 8f 24 b4 bc 13 06 20 bd
       0.041871153 -0.012089765 -0.021990089 -0.039068293
000260 e1 3c aa bd 32 1d bb 3b e9 0b ab bd b5 78 65 3d
       -0.08312393 0.0057102675 -0.08351881 0.05602332
000270 54 2a 11 3c 56 ab 8d bd 71 6b 22 3d 3d 9a 3b 39
       0.0088601895 -0.06917445 0.039653245 0.00017891168
000280 69 b1 e4 3b 16 f6 4a bc 93 b3 11 3d cb f8 22 be
       0.0069791568 -0.012387773 0.035571646 -0.1591522
000290 2e af e9 3c 71 d1 fb 3c 4c 96 9c 3d 02 75 88 3d
       0.028525915 0.030739518 0.07645854 0.066629425
0002a0 7f ab 5a bd 38 19 1a bd ca c0 4b be db 4e 91 bc
       -0.053386208 -0.037621707 -0.19897762 -0.017737797
0002b0 9c 14 09 bd da 1e af bc a1 41 cb 3d f7 3b e8 3d
       -0.03346692 -0.021377016 0.09924627 0.113395624
0002c0 77 77 83 3c 1f 56 c5 bc 20 a2 dc bd 05 a9 86 bd
       0.016048176 -0.024088917 -0.107731104 -0.06575207
0002d0 f1 e1 ab 3d d9 25 57 bd 92 c7 b6 3d 60 c4 f4 3c
       0.08392704 -0.05252633 0.08924784 0.029878795
0002e0 9f 09 31 3e 2f a5 c9 bd 94 a4 11 bd 79 03 01 3d
       0.17288826 -0.098459594 -0.035557345 0.031497452
0002f0 71 ad 0d 3e 5b ed 8a be b2 98 c6 bd bf 99 7e bd
       0.13835694 -0.27134213 -0.09697093 -0.062158342
000300 81 3a 3d 3d 13 88 06 3e 27 e3 67 bd b3 99 f5 3c
       0.04619837 0.13137846 -0.056613114 0.029980516
000310 76 49 8e be 91 cd da 3c d9 a0 43 bc 55 b4 4e 3c
       -0.2779042 0.02670935 -0.011940205 0.012616237
000320 bc d0 bf 3c 82 fe 89 3d 80 7a 67 3d 19 2f bd 3c
       0.023414962 0.06737997 0.05651331 0.023093747
000330 49 6e 36 3d 5b 7b 7d 3e 56 4d 21 3e bc 66 38 ba
       0.04453877 0.24754088 0.15752158 -0.00070343516
000340 98 b6 fa 3d 53 49 b1 be ea d2 15 bd aa 87 a5 bb
       0.12241858 -0.34626254 -0.036578096 -0.005051573
000350 12 4d ad 3d 18 22 37 bd 86 dc 1d 3d 93 03 bc 3d
       0.084619656 -0.04471025 0.038540386 0.09180369
000360 a2 d5 5e bd b2 4d 8f 3b 5f 56 18 3e c7 b5 a3 3d
       -0.054402955 0.0043732757 0.14876698 0.07993656
000370 7e ca da 3c 43 16 53 3d 95 5c eb be a1 66 99 3d
       0.026707884 0.051534902 -0.45969072 0.07490278
000380 cb 18 48 ba 90 c5 cd 3d 0c 47 f7 3d db 43 59 be
       -0.0007633089 0.10047448 0.12074098 -0.21217291
000390 30 3e 64 bc ab c6 24 bd 33 f4 92 bd 6b 37 f5 3d
       -0.013930842 -0.040228527 -0.071754836 0.11973461
0003a0 e7 52 80 bd de 62 a4 bc 4c b5 09 3e d6 38 0e 3d
       -0.06265812 -0.020066675 0.13448066 0.03472217
0003b0 62 b6 3e bc c2 27 f5 3c 24 bc 96 bd 66 26 07 3c
       -0.011640163 0.029926185 -0.07360104 0.008248901
0003c0 f2 a0 57 bd ec 22 60 3d a1 12 03 be 28 14 60 3c
       -0.052643724 0.054720804 -0.12800075 0.013676681
0003d0 4d b6 85 bc 58 43 57 3d f8 f5 13 be c0 9d dd bb
       -0.01632228 0.05255446 -0.14449298 -0.00676319
0003e0 13 bb 93 bd fe 4e ae 3d a9 58 18 be cb 0c 7a bd
       -0.07213416 0.0851116 -0.14877571 -0.061047357
0003f0 e7 1a 02 3d e1 c8 d2 bc 71 7b ed 3d c5 79 cb 3d
       0.031763937 -0.025730552 0.1159581 0.09935335

fc2.bias f4 [128]
000000 e4 ea 66 3d 94 53 38 bd 7a 33 92 bd d8 b9 f6 3d
       0.056376353 -0.04500158 -0.071387246 0.12047166
000010 c7 e7 d8 3c ce 26 4a 3e 27 f3 8c b9 89 34 8d bd
       0.026477708 0.19741365 -0.00026884043 -0.06894786
000020 1b 19 8f 3b a9 07 b4 3d 2e 9d 42 3d ad 78 80 3d
       0.0043670065 0.087905236 0.04751318 0.06273017
000030 9b f0 b4 bc 75 71 f6 bd 70 e8 ea 3c 16 68 32 3d
       -0.022087386 -0.12033359 0.028675288 0.043556295
000040 4f b1 8f 3d 0e e2 0d 3d f6 ef 25 bd 8c e6 de 3d
       0.07016241 0.03463941 -0.040512048 0.10883817
000050 3d cd b1 bc 26 3e cc bd 03 08 f9 bd a2 1e 05 bc
       -0.02170431 -0.099727914 -0.12159731 -0.008124979
000060 64 df ce bd 89 8b 71 bd 45 39 f7 3d 22 20 be 3d
       -0.10101202 -0.05897096 0.1207147 0.092834726
000070 3b e6 e1 bd f2 ab f6 3d f3 58 9e 3d 11 96 9b 3e
       -0.11030241 0.12044515 0.077318095 0.3038793
000080 d8 7f 12 3d 21 7c e6 bd 8b 95 24 bc 73 65 3e bd
       0.035766453 -0.112541445 -0.010045419 -0.04648347
000090 de 72 b1 bc b8 57 65 bd ed 35 6b 3e f2 d7 49 3e
       -0.021661218 -0.05599186 0.2296979 0.19711283
0000a0 7f 76 cc bd 6a c3 de bd 38 d9 21 3e 30 38 8c bd
       -0.09983539 -0.10877116 0.15805519 -0.068466544
0000b0 da 3f 20 bd 4a 0a c5 bd 0c 61 10 3d 0a 5f 7d bd
       -0.039123394 -0.09621103 0.0352488 -0.061858214
0000c0 6c c8 f7 3d 99 c6 fc bd 6d 2b 35 bd 3b 38 38 3d
       0.12098774 -0.12342567 -0.044230867 0.0449755
0000d0 af 0f eb bd 04 35 74 3d fb a5 73 3e f9 b6 11 3e
       -0.11477601 0.059620872 0.23793785 0.14229955
0000e0 8a 5b 80 bc 74 37 5b be 7e 83 35 3e a8 b7 f6 bc
       -0.01566865 -0.21407872 0.17725942 -0.030116871
0000f0 50 ea bc bd 97 61 b2 bd 4e 53 e7 bc 55 03 b5 3d
       -0.09224379 -0.0871002 -0.028237965 0.08838526
000100 0d 95 38 be f9 fe 1b be 89 5e f7 3c be 35 ea bd
       -0.18025608 -0.15233983 0.030196445 -0.11436032
000110 56 79 86 bc 9e cb 36 3e 10 86 90 bd a8 79 6d bd
       -0.01641528 0.17851111 -0.070568204 -0.05797735
000120 70 03 68 bd ac fd c1 3d 55 a5 ba bd ef 0b 41 3d
       -0.056643903 0.09472212 -0.09113566 0.04713052
000130 37 4b 42 be 32 37 e2 3c 85 2b ce bd 92 94 4d bd
       -0.18974005 0.02761421 -0.100668944 -0.050190516
000140 16 32 3f 3e 5d e8 af bc 0d 96 0b 3e 10 7a a9 bd
       0.1867145 -0.021473104 0.13631459 -0.08275235
000150 4b 86 c1 bd 61 35 de bd 0f 34 8a 3d c8 83 22 be
       -0.094494425 -0.10850025 0.06748211 -0.15870583
000160 66 21 a1 3d f3 07 1d 3d fa 04 33 3e 04 aa 20 3e
       0.07867698 0.03833766 0.17482367 0.15689856
000170 aa a3 32 3e 6a b3 52 3d 18 f9 7e 3e 20 41 fd bc
       0.17445245 0.051440634 0.24899709 -0.030914843
000180 58 53 c6 3d c3 bc 23 be 31 ff b5 3d 39 25 1e 3e
       0.09683865 -0.15989976 0.088865645 0.15443887
000190 1e 75 f4 3d 02 15 8b 3c df de 92 bd 62 18 72 3c
       0.11936401 0.01697779 -0.071714155 0.014776321
0001a0 fc bd 53 bd d7 29 e4 bb d7 ef 47 3e eb 03 85 bc
       -0.051694855 -0.0069629955 0.19525085 -0.01623722
0001b0 c1 c0 c8 bc 21 88 31 3d b0 8b 60 be a1 96 6c bd
       -0.024505975 0.043342713 -0.21928287 -0.05776084
0001c0 c9 df 68 3e c8 72 b6 3c 9c 9c 47 be b9 ac 01 bd
       0.22741617 0.022271529 -0.19493335 -0.03165886
0001d0 2c 92 0f 3e b7 dc d8 bd f3 83 9c bd 7e 52 cb bd
       0.14020604 -0.10588973 -0.07642355 -0.099278435
0001e0 be c5 01 bd 8b b4 61 bd f4 87 ec bd 79 53 6e 3e
       -0.031682722 -0.05510382 -0.115493685 0.2327403
0001f0 bd a3 25 bd 41 cc c1 3c 8b 37 fe bc a5 f6 81 bc
       -0.040439356 0.023656966 -0.031032344 -0.01586468

fc3.weight f4 [10, 128]
000000 15 15 ef 3d 65 c2 54 be e9 4d 1c 3e 51 aa 59 be
       0.11673943 -0.2077728 0.15264095 -0.21256377
000010 e0 4a 2d 3e e1 db 2a 3e 1b fa 69 be a0 85 35 be
       0.16923094 0.1668544 -0.22849314 -0.17726755
000020 36 24 52 bc 46 cc 9e be f4 32 c2 3d 35 ab d6 3c
       -0.012826016 -0.31015223 0.09482375 0.026204685
000030 75 c2 9c bd e4 2a 11 3e 55 d8 6b be 7f 48 fa 3d
       -0.07654277 0.14176518 -0.23031743 0.12220859
000040 82 6c 29 be 09 57 f4 3d 23 02 40 bc 08 85 cd 3c
       -0.16545299 0.11930663 -0.011719259 0.025087848
000050 39 ab 03 3e 52 be cb bd fd ec 68 3c 13 40 16 bc
       0.12858285 -0.0994841 0.014216659 -0.00917055
000060 de fc 1d 3e 80 6a ec bd d9 87 9d be fb 43 d6 3d
       0.15428492 -0.11543751 -0.30767706 0.10462185
000070 d8 f8 bf be 65 20 b9 bd 12 99 95 be c8 a2 07 3d
       -0.3749454 -0.09039382 -0.29218346 0.033114225
000080 bf b3 14 3e 9c 6e 15 be f9 70 ce 3c 72 91 aa 3d
       0.14521693 -0.14592975 0.025200354 0.08328523
000090 9f ad 70 3d 3a 13 44 3d 8c c6 e5 3c d3 48 18 3e
       0.058759328 0.0478699 0.028048776 0.1487153
0000a0 42 72 89 be 75 3d 9b be 23 b7 61 be 26 d9 13 bd
       -0.26844984 -0.30320325 -0.22042517 -0.03609576
0000b0 7c d8 a8 3b bd 3b 54 3d e8 92 51 be 5d d2 25 bd
       0.00515276 0.051814783 -0.20466197 -0.04048382
0000c0 11 69 3a 3d 8a 20 d1 3d 18 ff ef 3d 7e 59 3c 3d
       0.045510355 0.102112845 0.11718577 0.045983784
0000d0 f4 25 61 3e 6c 0f cd bd 1e 08 38 be 44 0e eb 3c
       0.21987134 -0.10012707 -0.17971846 0.028693326
0000e0 1a a6 02 be f8 29 2c be e4 81 87 be 82 37 fe 3b
       -0.12758675 -0.16812885 -0.26466286 0.007758082
0000f0 de e3 d1 3d eb 59 ef bd 5a 28 5c bd e9 c9 b1 bd
       0.1024854 -0.11687072 -0.05374942 -0.086810894
000100 a9 f9 a8 bd ce 27 67 3b ba f9 e7 3d 5b 99 3e be
       -0.08250744 0.0035271528 0.113269284 -0.18613188
000110 cf 2c 9b bd f5 6d 5f 3d 90 c7 2e 3d dd 8a 25 be
       -0.07576906 0.054548223 0.042670786 -0.16166253
000120 d6 9f 01 bd 14 36 2d be 26 bf 49 3d 19 bc b5 3d
       -0.031646572 -0.1691516 0.04925456 0.088737674
000130 1d 89 8e 3d 0e be 30 3d a7 e3 f8 bd 74 5b ee bc
       0.06959746 0.04315 -0.12152796 -0.029096343
000140 b7 2e af bd b3 77 82 be 23 63 54 be c9 12 ac bd
       -0.08553832 -0.25481948 -0.20740943 -0.084020205
000150 6b 89 87 bc 9b 6a 3e 3c ca 41 46 bc 94 15 9f 3c
       -0.016545018 0.011622096 -0.012100646 0.019419469
000160 d2 25 9e bd 7f a5 ec 3b c8 04 cc 3c de 11 0e 3e
       -0.077220574 0.007221877 0.024904624 0.13874003
000170 e9 6c d3 bd b9 cb cd bd 3e 27 1c bd c8 04 da bd
       -0.10323507 -0.10048623 -0.03812336 -0.10645443
000180 18 10 0b bd 30 59 30 bd 08 c0 56 be a6 17 b6 3d
       -0.033950895 -0.043053806 -0.20971692 0.08891229
000190 a2 83 90 be ab 92 7b be cd 43 f7 bc 1a b6 71 be
       -0.28225428 -0.24567668 -0.030183697 -0.23604622
0001a0 fc 06 0c be 97 68 9c 3d a2 6c e0 3c f7 1f c1 bd
       -0.1367454 0.076371364 0.02739555 -0.09429925
0001b0 4e aa 16 be ed 00 c0 bd 44 43 28 be b8 45 ce 3d
       -0.14713404 -0.093751766 -0.1643191 0.100718915
0001c0 28 fe f0 bd a9 78 51 bc 46 34 c7 3d b4 ae 7c be
       -0.117672265 -0.012785115 0.09726767 -0.24676019
0001d0 ec ee 97 bd 13 21 c6 3d 36 a7 e1 bd 21 65 53 bd
       -0.074186176 0.09674277 -0.11018221 -0.051610116
0001e0 ce 2a 69 3c 37 5d 56 be ae cf f5 bc 45 ce e1 3d
       0.014231397 -0.20933996 -0.030006256 0.11025671
0001f0 f5 4d 7d be 87 86 05 bd 4c 3d aa 3d 3b 69 8e 3d
       -0.2473677 -0.032599 0.08312473 0.06953665
000200 aa 78 59 be 4b ae 51 be 0b a5 cf bd b5 e3 20 be
       -0.21237436 -0.20476644 -0.10138901 -0.15711863
000210 43 74 88 bd 72 6d ba bd 2c 47 3a 3d 79 f3 d5 3d
       -0.066628 -0.09102906 0.04547803 0.10446829
000220 53 2e b3 bd b6 73 8a 3d ab d8 da 3c 3c 90 de bd
       -0.0874907 0.06760351 0.026714643 -0.10867354
000230 a6 56 64 bd 5d 22 ef 3d be 25 3b bd a6 2d d1 3d
       -0.055746697 0.11676476 -0.04569029 0.10213785
000240 d9 87 b5 3d 65 24 38 be 08 0c 8e bc 4f 79 33 be
       0.088638015 -0.17982633 -0.017339721 -0.17526744
000250 0d 6c bb bb be d1 69 bd 79 fc 9b 3c c4 4f 66 3d
       -0.0057196678 -0.05708479 0.019041287 0.056228414
000260 3a 8e c3 3d be 89 20 bb 41 b5 37 be 68 1d 10 bd
       0.09548612 -0.0024496163 -0.17940237 -0.035184294
000270 1c 76 2a 3e 19 9e e5 bd a5 c9 0b 3e 42 6b ac bc
       0.16646618 -0.11211795 0.1365114 -0.021047238
000280 c5 93 8b be 14 54 d6 bb 45 bb 78 3d 5d 5a 81 be
       -0.27261177 -0.0065407846 0.06072547 -0.25264254
000290 6e 07 1a be a4 2b 08 bd e6 ce ce 3d 80 b0 4c ba
       -0.15041897 -0.033244744 0.100980565 -0.0007808283
0002a0 f4 13 13 3e a8 af 82 b9 fd 1a 72 3d 37 7b 81 bc
       0.1436308 -0.00024926406 0.05910777 -0.015805824
0002b0 6f 0a f2 bd 53 7d e4 bd a6 78 f5 bd 86 76 17 3d
       -0.11818396 -0.11156716 -0.119859025 0.036978267
0002c0 5c 0b 72 3d 1e cf e8 3d 33 0e 18 3e cc 59 04 be
       0.059092864 0.113676295 0.14849167 -0.1292488
0002d0 2b 9d 9d be b8 1a 21 be 92 86 9e 3d 9b d6 b9 bd
       -0.30783972 -0.15732849 0.07740511 -0.09074136
0002e0 c0 6f a0 be ff 30 b1 3d 4b d0 16 bd 3a e9 23 be
       -0.31335258 0.086519234 -0.036819737 -0.16006938
0002f0 72 ed 10 be d8 ce 25 be b1 63 3a 3b 19 85 89 be
       -0.14153078 -0.16192186 0.0028440768 -0.26859358
000300 ef 59 44 3e 01 a1 76 3d 8b f8 21 be f2 14 fe 3d
       0.19174932 0.06021214 -0.15817468 0.12406339
000310 fe 6e 0e 3e 7d c6 a4 be 85 96 85 bc bc 43 f8 3d
       0.13909528 -0.32182685 -0.016307125 0.12122294
000320 9a 26 c7 3d 7b 81 5e be f0 f8 63 be 6f 7c 9d bd
       0.097241595 -0.2172908 -0.22262931 -0.076897494
000330 4b cd 12 bf 3f ec 5a be 60 16 a0 bd 03 41 87 be
       -0.573445 -0.21379183 -0.07816768 -0.26416788
000340 0d 3d 62 bd a3 d6 39 3b 5c 55 17 bc d8 9c 3e be
       -0.055234004 0.0028356693 -0.00923666 -0.18614519
000350 2a 6d 00 3e 8a 56 e4 3d 71 8e 86 bd 9c f8 de 3c
       0.12541643 0.111493185 -0.06570137 0.027218156
000360 5f 77 f5 bd 12 16 fc 3d 9e 40 86 be 37 85 1d be
       -0.11985659 0.12308897 -0.26221174 -0.15382849
000370 52 ce f8 bd 93 84 1e 3d 96 5b 01 3d 97 fc af 3b
       -0.121487275 0.03870065 0.031581484 0.005370687
000380 e4 a8 af bd 16 43 7d 3c e2 88 a9 be ea ca 0e be
       -0.08577135 0.015457889 -0.33112246 -0.13944593
000390 ac 0f 55 be fe 13 8f bc df 92 91 be ed 1a 26 3d
       -0.2080676 -0.017465588 -0.28432366 0.040553022
0003a0 b3 6f d6 3d 7f 84 18 be 04 cc 71 be 49 ac d2 bd
       0.10470524 -0.14894293 -0.23612982 -0.10286767
0003b0 55 a6 e7 3d d0 84 0f bd 32 8b 0b 3e 7a fa 98 bd
       0.11311022 -0.03503877 0.13627318 -0.074696496
0003c0 6b eb 2f 3d 84 94 00 bd 6c 66 af 3d c7 46 f2 3d
       0.04294912 -0.031391636 0.08564457 0.11829906
0003d0 38 6a 9a 3d 9f b7 9d ba 8b 9e 88 bd b8 37 aa 3d
       0.07539791 -0.0012032873 -0.06670865 0.08311409
0003e0 f5 da 32 be 40 e5 a5 bd 48 33 6c be 00 39 04 be
       -0.17466338 -0.081003666 -0.23066437 -0.12912369
0003f0 8d 10 3e 3d 58 7a 8e 3d 91 44 6b be 92 9d 25 3d
       0.046402503 0.06956929 -0.22975375 0.040433474

fc3.bias f4 [10]
000000 3c 39 de bd d8 e8 5e be 00 15 02 be 2e 1f dd bc
       -0.1085076 -0.2176851 -0.12703323 -0.026992407
000010 59 c7 c5 3d 8d 26 f2 bc 90 d8 80 3d e9 58 ad bc
       0.09657163 -0.029559398 0.06291306 -0.02116056
000020 34 b1 b2 3e d0 f3 3e bd
       0.3490082 -0.046619236
